vision/face_detection_yunet_2023mar_int8bq.onnx (onnx, 122489 bytes, 169 tensors)

421 f4 [16]
000000 d2 6c a5 3e 4c ad 59 3e 49 8d c6 3e d6 ad 01 3f
       0.32309586 0.21257514 0.38779667 0.5065588
000010 64 9d 4f 3e 8b 3f d4 be 5c 10 03 3e 02 09 39 3f
       0.20274884 -0.4145473 0.1279921 0.7227937
000020 5c 76 93 3d a2 00 81 3e cc 35 b8 bf 03 63 db 3d
       0.0720031 0.25195795 -1.4391418 0.10712244
000030 a5 bf a2 3e 5d 80 0f 3f d0 57 cf 3d 34 90 bc 3e
       0.31786838 0.5605524 0.10124171 0.36828768

424 f4 [16]
000000 cc 89 b1 3e 60 64 c9 3f 96 e5 36 bf 80 9c 8c bd
       0.34675443 1.5733757 -0.7144407 -0.068657875
000010 86 31 35 bd 30 eb 54 3d 78 f7 b1 3e 62 e9 63 bd
       -0.044236682 0.051982105 0.34759116 -0.055642493
000020 48 dd 29 3d d3 96 c6 3d 09 4b a9 3e c1 85 bb 3e
       0.041470796 0.09696736 0.3306506 0.36625484
000030 cc 2a ce 3f 7a 84 75 bd d8 b1 a0 3b 43 84 2f bd
       1.610681 -0.059940793 0.004904013 -0.042850744

427 f4 [16]
000000 cc ae da 3d 17 c0 84 3f 80 43 44 bd 96 b3 6e 3f
       0.10677871 1.0371121 -0.047915936 0.93242776
000010 24 96 d7 3f d0 3d 3f 3f 01 e0 0d 3e f2 56 ab be
       1.6842694 0.74703693 0.13854982 -0.33464772
000020 58 7f c3 3d c5 a3 c6 3f 87 89 a2 3e ad 7d 3e 3f
       0.09545773 1.5518728 0.3174555 0.74410516
000030 a0 00 a9 3c 18 62 c7 3f d6 97 f4 be ac a9 09 be
       0.02063018 1.5576811 -0.47772092 -0.13443631

430 f4 [32]
000000 22 78 64 3e 97 1a b3 bf 70 9a 1b be e0 22 76 bd
       0.22311452 -1.399249 -0.15195632 -0.060091853
000010 92 33 d4 bd 98 bd bf 3f eb 52 11 3f 2a 2b 68 3f
       -0.10361399 1.4979734 0.5676715 0.90690863
000020 5f d1 4c 3e b0 4a 3f 3d 00 a0 fb bb d0 12 8f 3c
       0.20001744 0.046702087 -0.0076789856 0.017465025
000030 63 3e 80 3f 2c 56 88 bc 81 eb f6 be d0 39 97 be
       1.0019039 -0.016642652 -0.4822655 -0.29536295
000040 3a 80 52 3f cd 20 bd 3d 77 99 36 bd b5 e1 56 3f
       0.8222691 0.09234772 -0.04457995 0.8393815
000050 02 93 98 3e 38 0d 17 3c e2 a0 11 bf 9c 74 92 3e
       0.29799658 0.00921946 -0.5688611 0.2860459
000060 24 fc 37 3e 78 55 95 3e 48 8a d3 3f aa 3a 5b 3e
       0.17967278 0.2916677 1.6526575 0.21409097
000070 db e7 c0 3e 00 24 5b bd 5a 84 13 bc 80 97 37 3d
       0.37676892 -0.05350113 -0.009003723 0.044822216

433 f4 [32]
000000 61 2b fa 3e 51 7c 11 3f 4a 93 f2 3e 0c 1c 75 bd
       0.4886122 0.56830317 0.47377998 -0.0598412
000010 71 8a 3c 3f 27 b4 15 3f dc 3a af be 5f 41 1b be
       0.73648745 0.58478016 -0.34224594 -0.15161656
000020 12 dc 09 3f 5c 62 a5 bd ce ac 9a 3e 99 32 13 3e
       0.53851426 -0.08075401 0.30209965 0.1437477
000030 7b 26 de be 21 5d 55 3e 73 38 8c 3e 72 5c ff 3d
       -0.43388733 0.20836307 0.27386817 0.124688044
000040 2f 17 34 be 78 5b ec ba d5 c2 34 bd 90 0f f1 3d
       -0.17586969 -0.0018032631 -0.04413112 0.117705464
000050 60 94 40 bc 9b fb 82 3e dd cc 1b bd 22 aa 3c bf
       -0.011754125 0.25582585 -0.03803717 -0.736971
000060 ff c1 c4 bf e2 74 09 3f 24 fb f0 3e 8c a6 6b 3e
       -1.5371703 0.53693974 0.47066605 0.23012751
000070 bd 01 bb 3e e1 ad 19 3f 08 ae bc 3e 61 7c c9 3c
       0.36524764 0.60030943 0.36851525 0.024595441

464 f4 [4]
000000 00 00 80 3f 00 00 80 3f 00 00 00 40 00 00 00 40
       1.0 1.0 2.0 2.0

465 f4 [4]
000000 00 00 80 3f 00 00 80 3f 00 00 00 40 00 00 00 40
       1.0 1.0 2.0 2.0

backbone.model0.conv2.conv1.bias f4 [16]
000000 c1 01 de be c2 b9 56 be 24 ca df bc f2 22 28 be
       -0.43360713 -0.20969298 -0.027318068 -0.1641958
000010 bf 53 e1 bd 8d 95 00 be 9b c0 6c 3d 8c d7 e0 be
       -0.110023014 -0.12557049 0.05780087 -0.4391445
000020 0f 48 37 3e 71 f5 8e 3d e4 db b2 3c ca 50 16 3e
       0.17898582 0.06980408 0.021833368 0.14679256
000030 25 5d b1 bb 6c 46 08 3e 84 cd f3 bd bb 20 19 be
       -0.005412715 0.13308114 -0.11904433 -0.14953892

backbone.model1.conv1.conv1.bias f4 [16]
000000 f3 c5 12 be 3a 81 c0 bd 1f a5 cd bd c6 f3 9e 3e
       -0.14333324 -0.09399648 -0.1004126 0.3104536
000010 aa fa 07 be 54 af 83 bc 4c 2c 81 be 8d e3 15 bd
       -0.13279215 -0.016074814 -0.25229108 -0.036593962
000020 d2 8d 16 bd 34 51 29 3e 25 2e 4c 3e dc a0 de bc
       -0.036756344 0.16534883 0.19939478 -0.027176313
000030 79 7c 15 3e 29 f9 2a be 0b 4a 32 3b 02 d1 fd bd
       0.14598264 -0.1669661 0.0027204778 -0.12393381

backbone.model1.conv2.conv1.bias f4 [32]
000000 2b df b2 3e d1 0e 8d bd e2 39 75 3c 70 ca 3d 3e
       0.3493589 -0.06887592 0.014967414 0.18534255
000010 50 d6 c6 bd f1 3a 84 3d 19 84 da bc 5e ee 9e be
       -0.097088456 0.06456555 -0.026674317 -0.31041235
000020 2d a2 c4 bd d6 2c c4 ba 01 35 90 3c 08 55 92 bd
       -0.09601245 -0.0014966975 0.0176034 -0.07145125
000030 9a 32 d6 bc 23 bb 5e 3b b4 c8 cf 3c 86 c3 77 bd
       -0.026147176 0.0033986054 0.025364257 -0.0604892
000040 a3 70 06 bc 3e 27 16 be 3b ef 95 bd b4 84 7a bb
       -0.008205566 -0.14663407 -0.0732102 -0.003822607
000050 26 2d b6 3d 48 e3 4d be 7e e1 3f bd c2 e1 2a bc
       0.0889533 -0.20106232 -0.046845905 -0.010429801
000060 eb e3 c2 bc 06 d9 f5 3d 39 3a 96 3e a4 95 10 be
       -0.02379032 0.120042846 0.29341295 -0.14119583
000070 a2 77 1b bd 07 fd 0c bf 1c ac 18 be 15 5b 75 3d
       -0.037955888 -0.5507359 -0.14909405 0.059901316

backbone.model2.conv1.conv1.bias f4 [32]
000000 cd 51 28 3c 00 fc 15 be 69 fc 90 3d 6c dd 42 bd
       0.010273409 -0.14646912 0.070793934 -0.047574446
000010 54 f0 52 3c 69 cb a8 3d f9 a3 ae bc 24 4d 08 bc
       0.0128746815 0.082419224 -0.021318423 -0.008319173
000020 88 6a 12 3e e2 0c be 3b d1 5e 1a bc 92 dd e9 bd
       0.14298451 0.0057998756 -0.00942202 -0.11419214
000030 87 e3 f1 bb ec b7 84 3d 59 0e bb bd bf f6 14 be
       -0.0073818597 0.06480393 -0.09133596 -0.14547251
000040 b1 1a 45 bd 56 c2 f8 3d 60 bd 34 3e 6a 56 d5 bc
       -0.048121158 0.12146442 0.17650366 -0.026042182
000050 6b ed 93 bd 5d 85 5f 3c 1f 0b 07 3e a6 18 30 3d
       -0.07223018 0.013642636 0.13187836 0.042992257
000060 26 d9 15 bd 31 54 40 be 95 42 19 be e9 93 5f bd
       -0.036584042 -0.18782116 -0.14966805 -0.054584417
000070 d7 f0 5c 3c ed a0 e2 3a 62 43 89 bb 9c cd 13 3d
       0.013485155 0.0017290391 -0.004188941 0.036084756

bbox_head.multi_level_bbox.0.conv1.bias f4 [4]
000000 93 0b 30 bf 14 91 37 bf 60 09 94 be 43 03 7b be
       -0.6876766 -0.71705747 -0.28913403 -0.24512963

bbox_head.multi_level_bbox.0.conv2.bias f4 [4]
000000 88 39 f7 3e eb 2f 00 3f c7 2c 9b 3f 2e 34 bb 3f
       0.4828608 0.50073117 1.212304 1.4625299

bbox_head.multi_level_bbox.0.conv2.weight f4 [4, 1, 3, 3]
000000 3a e2 59 3e 12 42 d3 bd 31 2d f9 bd 73 e4 84 3f
       0.21277705 -0.10315336 -0.12166823 1.0382217
000010 ef 49 83 be 86 e5 34 bf fc a6 1a 3e 9a 0f 87 bd
       -0.25642344 -0.70662725 0.15102762 -0.06594773
000020 1f 1a 8c bd 1f 8e 7d 3d 51 e3 8d 3f da 1a 7d 3d
       -0.0684092 0.061903115 1.1084996 0.061793186
000030 d5 f6 31 bd 0b c6 58 bf 88 74 14 bd eb 24 7c bd
       -0.043448288 -0.8467719 -0.036243945 -0.061558645
000040 51 38 ba be d9 63 a0 bd e9 bd bc bd 39 61 05 be
       -0.3637109 -0.078315444 -0.0921591 -0.13025369
000050 0b 37 08 3c 3b 80 0d be 9b b2 80 be f5 ad e4 bd
       0.0083139045 -0.13818447 -0.25136265 -0.11165992
000060 59 8c ed bc 23 d9 57 be c6 c3 b1 bd d1 2a 60 bd
       -0.028997587 -0.21078925 -0.08679919 -0.054728333
000070 e4 51 bf bd 96 e1 eb bc fa 9f 06 be e9 ee 68 be
       -0.09341791 -0.028794091 -0.13146964 -0.22747387
000080 14 f1 0b be 70 f0 44 bd 2a c6 49 be 6f 13 9c bd
       -0.13666183 -0.04808086 -0.197045 -0.07620894

bbox_head.multi_level_bbox.1.conv1.bias f4 [4]
000000 bd f3 1b be 21 8b be 3e a8 96 dd bd 5c 98 d1 bd
       -0.15229698 0.37215522 -0.10819751 -0.10234138

bbox_head.multi_level_bbox.1.conv2.bias f4 [4]
000000 94 a4 ed 3e c7 e3 f8 3e ea 83 c2 3c 3b ac 30 3e
       0.46414626 0.4861128 0.023744542 0.172532

bbox_head.multi_level_bbox.1.conv2.weight f4 [4, 1, 3, 3]
000000 dd 46 fa bc b5 44 58 3c f2 08 a5 bb ae d1 59 3e
       -0.030551368 0.013199975 -0.0050364668 0.21271393
000010 cf 7a 0c bf a9 69 0e bd 99 b0 56 bc c0 2d b4 bc
       -0.5487489 -0.034768734 -0.013103628 -0.021994472
000020 e9 ea 23 bc 15 1e b2 bb 2e d1 00 bf c3 94 29 bb
       -0.010004737 -0.005435715 -0.5031918 -0.0025876022
000030 2d cf 88 3c f9 29 bf 3e 35 45 bd 3c 08 06 4a bb
       0.016700352 0.3733671 0.02310429 -0.0030826349
000040 65 12 b7 3d 7f 08 07 3c 60 92 3a bd 6d 8c ad bd
       0.08939055 0.008241772 -0.04554975 -0.0847405
000050 cb b8 fc bc 4c 2a b6 bd 65 48 c2 be 07 f0 20 bd
       -0.030849835 -0.08894786 -0.37945858 -0.039291408
000060 52 42 b6 bb 5b d9 33 be d3 e1 cd 3b 7e d7 5b bd
       -0.005562105 -0.17563383 0.006283024 -0.053672306
000070 29 d8 21 bd c1 b2 d2 bc f4 68 bf bd f7 0f d0 be
       -0.039512787 -0.025720002 -0.0934619 -0.4063718
000080 eb f7 8c bd 4b 50 05 bb 5f 2c 07 be db a9 52 3c
       -0.06883224 -0.0020342048 -0.1320052 0.0128578795

bbox_head.multi_level_bbox.2.conv1.bias f4 [4]
000000 e0 c2 51 3d 79 cc eb bd 7f 1a 5b bd 75 08 3e 3c
       0.051211238 -0.115136094 -0.053492066 0.011598696

bbox_head.multi_level_bbox.2.conv2.bias f4 [4]
000000 65 e1 9c 3e ef d6 88 3e 87 b7 a9 3f a7 a2 c0 3f
       0.30640712 0.2672648 1.3259133 1.5049638

bbox_head.multi_level_bbox.2.conv2.weight f4 [4, 1, 3, 3]
000000 b5 3f ad 3d fa fa 3a 3e d8 54 af 3d dc ec 39 3e
       0.08459417 0.18259802 0.085611045 0.18156761
000010 87 c0 06 3f 75 0f 48 3e d0 59 84 3d 35 70 c6 3e
       0.52637523 0.19537146 0.06462443 0.38757482
000020 b0 9b b5 3d fe 2e 86 bd 6d 24 81 be 5a 02 0e bd
       0.08867586 -0.06551932 -0.25223103 -0.03467021
000030 4b 32 81 be 59 9d 0d bf 5b 64 9d be a5 3f 78 bd
       -0.25233683 -0.5531822 -0.30740628 -0.06060757
000040 72 aa b0 be 45 76 cb bc 22 ed 8d bd bf 0e d0 bd
       -0.3450504 -0.024836669 -0.06929995 -0.101590626
000050 52 0a 82 bd 8e 14 10 be 9c 5f 96 be a1 f4 3c be
       -0.06349625 -0.14070341 -0.2936982 -0.18452694
000060 9a c4 84 bd d3 76 3b be 89 09 93 bd a4 03 69 3d
       -0.06482811 -0.18307047 -0.07179553 0.056888238
000070 83 e2 33 3e 36 0d e8 3c 93 03 e7 3d 7f 8c 9e 3e
       0.17566876 0.028326612 0.112799786 0.30966565
000080 f3 7f 0f 3e 82 8c 3f 3d 3a 86 5a 3e 96 43 07 3d
       0.14013653 0.046764858 0.21340266 0.03302344

bbox_head.multi_level_cls.0.conv2.weight f4 [1, 1, 3, 3]
000000 86 c5 17 3e ee 5a 8b 3e 0f 5b 1d 3e fe f8 96 3e
       0.14821443 0.2721781 0.15366767 0.2948684
000010 21 d0 9d 3e ea 25 83 3e b6 c7 44 3e d7 b3 9e 3e
       0.30822852 0.25614864 0.19216809 0.30996582
000020 94 0e 16 3e
       0.14653999

bbox_head.multi_level_cls.1.conv2.weight f4 [1, 1, 3, 3]
000000 bf 49 7f bd fc 1d aa be f3 f9 e4 bc 8e 1e a1 bd
       -0.06232619 -0.33226 -0.027951216 -0.07867156
000010 12 d0 fe be 59 3e 86 bc 7e 05 e9 3b fe 5f de bd
       -0.4976812 -0.016387152 0.0071112504 -0.10858153
000020 a6 50 28 ba
       -0.0006420709

bbox_head.multi_level_cls.2.conv2.weight f4 [1, 1, 3, 3]
000000 81 3f 01 be 4e 62 74 be ce 38 c7 bd d7 e0 74 be
       -0.12621881 -0.23865625 -0.097276315 -0.23913895
000010 42 cd d4 be 89 7a 87 be 47 7c 0e be f5 9d c1 be
       -0.4156285 -0.26460674 -0.13914596 -0.37815824
000020 d7 25 1f be
       -0.15541779

bbox_head.multi_level_kps.0.conv1.bias f4 [10]
000000 e1 6b be 3e b3 d5 a5 3d 8b 9e ed 3d 95 60 c3 3d
       0.3719168 0.080974005 0.11602505 0.09539906
000010 62 65 86 3e cf d0 c7 3e e3 81 a4 3e 20 24 00 be
       0.26249224 0.39026496 0.32130346 -0.1251378
000020 78 f6 a1 be b7 e0 16 3f
       -0.31633353 0.5893664

bbox_head.multi_level_kps.0.conv2.bias f4 [10]
000000 12 3e fe bd eb 81 55 3d ac 98 61 3f 90 c0 80 3d
       -0.12414183 0.052125853 0.88123584 0.062867284
000010 b5 07 b8 3e 86 57 8a 3e 1b 2b f3 3c ce 00 d7 3e
       0.3594338 0.270199 0.02968364 0.419928
000020 28 fe 4d 3f 4c 52 d7 3e
       0.80465937 0.42054975

bbox_head.multi_level_kps.1.conv1.bias f4 [10]
000000 43 c7 24 3c 61 00 a2 bc 66 12 da 3d 37 60 9e bc
       0.010057273 -0.019775571 0.106480405 -0.019332988
000010 33 e3 9e bd a1 44 5b 3d 52 91 76 bd a5 70 aa bd
       -0.077581786 0.053532247 -0.060197182 -0.083222665
000020 6c 18 ca 3d 14 ff a4 3d
       0.09867939 0.08056465

bbox_head.multi_level_kps.1.conv2.bias f4 [10]
000000 b9 0b 74 3e 66 1a 03 3e 8a 01 8c 3e 8a f1 00 3e
       0.23832597 0.12803039 0.27344924 0.1259214
000010 ec 1c 41 3e 0a 1e 63 3e d5 2c 3e 3e 56 44 78 3e
       0.18858689 0.22179428 0.1857179 0.24244818
000020 58 7f 87 3e 76 e9 73 3e
       0.26464343 0.23819527

bbox_head.multi_level_kps.2.conv1.bias f4 [10]
000000 b1 9a 01 be 73 d9 f2 3d ce 51 9c be b8 86 c1 bd
       -0.12656666 0.118578814 -0.30531162 -0.09449524
000010 26 90 d7 3d 5a 53 01 be fe ee 18 3d cf 5f c3 be
       0.10525541 -0.12629452 0.037337296 -0.38159034
000020 dc 3b 80 3e 83 c4 c5 be
       0.2504567 -0.3862649

bbox_head.multi_level_kps.2.conv2.bias f4 [10]
000000 44 f3 c7 bd 8b 94 35 bd 88 dc 6d 3e c2 d7 4e bd
       -0.09763196 -0.044331115 0.23228657 -0.05049873
000010 65 a3 80 3d 9f 02 24 3e ff c7 73 bd a8 8d a1 3e
       0.06281165 0.16016625 -0.059516903 0.31553388
000020 42 0e 2d 3e 10 91 a3 3e
       0.1689997 0.3194661

bbox_head.multi_level_obj.0.conv2.weight f4 [1, 1, 3, 3]
000000 ed a3 99 bc f1 5b c3 bc 61 c8 b2 ba 09 77 2e be
       -0.018754924 -0.023847552 -0.001364004 -0.17037596
000010 fc 79 50 40 d9 00 47 be 8a 95 47 bd be 2f 32 be
       3.2574453 -0.19433917 -0.048726596 -0.17401025
000020 9f 92 ee bc
       -0.029122649

bbox_head.multi_level_obj.1.conv2.weight f4 [1, 1, 3, 3]
000000 03 4a 8a 3d a9 5f 7f 3e 2a 36 80 3d a3 a7 cc 3c
       0.06752398 0.24938835 0.06260331 0.02498228
000010 92 f6 16 40 05 83 2f 3d 44 e9 3e 3d fd d8 0a 3e
       2.3587995 0.04284956 0.04660918 0.13559337
000020 8e 3d 38 3d
       0.044980578

bbox_head.multi_level_obj.2.conv2.weight f4 [1, 1, 3, 3]
000000 9e 92 10 3f d5 3a 78 3e 56 e5 97 3e 34 8e de bc
       0.5647372 0.24241193 0.29667157 -0.027167417
000010 b5 99 2a 40 4c 7c e2 bc fd db 32 3e 45 e8 de 3e
       2.6656315 -0.02764716 0.17466731 0.43536583
000020 36 63 c1 3e
       0.37771004

420_scales f4 [16, 1]
000000 f0 ae c7 37 33 57 5d 37 e9 9f 2f 37 06 4d 83 37
       2.380411e-05 1.3192929e-05 1.0468045e-05 1.5652284e-05
000010 22 72 b7 37 a3 0d 0c 38 b2 31 66 37 2a 66 89 37
       2.1868447e-05 3.33913e-05 1.3720639e-05 1.6379247e-05
000020 8b 36 9f 37 d9 ec f8 37 3c 3e 14 37 55 ef e8 37
       1.8979676e-05 2.9674195e-05 8.8359775e-06 2.7768003e-05
000030 a8 b7 07 38 39 a9 29 37 a6 3e 02 37 fb b5 df 36
       3.235755e-05 1.0112585e-05 7.76319e-06 6.667103e-06

420_zero_point i1 [16, 1]
000000 09 ff 0a 2d f5 ec ea 24 fb 26 fa 1f 07 25 e1 3f
       9 -1 10 45 -11 -20 -22 36 -5 38 -6 31 7 37 -31 63

420_quantized i1 [16, 27]
000000 3c f3 e1 4d df c0 26 ee 5c 6d ec ae 7f d1 80 4f
       60 -13 -31 77 -33 -64 38 -18 92 109 -20 -82 127 -47 -128 79
000010 e0 24 64 ea b5 72 d0 91 52 ec 40 c1 c0 d9 e7 ba
       -32 36 100 -22 -75 114 -48 -111 82 -20 64 -63 -64 -39 -25 -70
000020 ef c5 80 d5 e6 e8 f1 0f e5 0e d2 90 dc 3b 38 30
       -17 -59 -128 -43 -26 -24 -15 15 -27 14 -46 -112 -36 59 56 48
000030 7f 50 67 40 f6 31 23 66 43 42 7f 58 44 5a 40 1d
       127 80 103 64 -10 49 35 102 67 66 127 88 68 90 64 29
000040 51 31 2d 5b 38 3b 42 2c 8f ae 95 90 aa 8c 9d 91
       81 49 45 91 56 59 66 44 -113 -82 -107 -112 -86 -116 -99 -111
000050 80 2e 48 5f 53 f5 b8 7e 4e f4 04 21 2e 2d cc 80
       -128 46 72 95 83 -11 -72 126 78 -12 4 33 46 45 -52 -128
000060 4a 1e b6 15 65 7f 2a 02 ce 5e 6a 20 b0 bb db 99
       74 30 -74 21 101 127 42 2 -50 94 106 32 -80 -69 -37 -103
000070 8c 80 cb ed c8 31 32 46 1c 07 f0 60 7f 53 ec f9
       -116 -128 -53 -19 -56 49 50 70 28 7 -16 96 127 83 -20 -7
000080 10 d6 cc b4 03 2c fd 16 55 47 c1 bf e0 c0 98 be
       16 -42 -52 -76 3 44 -3 22 85 71 -63 -65 -32 -64 -104 -66
000090 47 7f 71 ca bf e5 b2 80 aa 20 34 31 d1 a5 d5 ef
       71 127 113 -54 -65 -27 -78 -128 -86 32 52 49 -47 -91 -43 -17
0000a0 9c cc af d2 c8 fd 0c e1 09 19 e7 35 4b 41 6e 75
       -100 -52 -81 -46 -56 -3 12 -31 9 25 -25 53 75 65 110 117
0000b0 4c 74 7f 53 80 89 9a 99 8f 82 98 91 80 69 2e 3d
       76 116 127 83 -128 -119 -102 -103 -113 -126 -104 -111 -128 105 46 61
0000c0 48 f8 2f 73 5e 7f e0 ab b6 ce 80 b0 f7 e3 fa 70
       72 -8 47 115 94 127 -32 -85 -74 -50 -128 -80 -9 -29 -6 112
0000d0 4a 3f 43 05 25 4a 44 51 04 20 1e ed 39 15 17 77
       74 63 67 5 37 74 68 81 4 32 30 -19 57 21 23 119
0000e0 25 95 b8 97 83 d5 8b 95 f9 80 21 68 44 03 7f 3b
       37 -107 -72 -105 -125 -43 -117 -107 -7 -128 33 104 68 3 127 59
0000f0 e1 72 06 6e 47 29 c4 da 49 46 09 4c 39 40 60 80
       -31 114 6 110 71 41 -60 -38 73 70 9 76 57 64 96 -128

backbone.model0.conv2.conv1.weight_scales f4 [16, 1]
000000 ad 28 93 3b 0f 86 4a 3b c5 9b 8c 3b 8c f7 82 3b
       0.004490933 0.003090266 0.00429103 0.003996795
000010 aa 53 fa 3a df 88 4f 3b 93 ec 81 3b 30 25 0c 3b
       0.001909842 0.0031667275 0.0039649694 0.002138447
000020 3f 2f 25 3b 64 f1 64 3b 1e 56 35 3b 7b 8d 7d 3b
       0.0025205163 0.003493392 0.0027669738 0.0038689065
000030 86 c8 99 3b 98 4e 14 3b 9b d1 07 3b a6 7d 1f 3b
       0.0046930937 0.0022629853 0.00207243 0.0024336367

backbone.model0.conv2.conv1.weight_zero_point i1 [16, 1]
000000 df c6 f4 03 3c 06 25 e4 ff e8 bf d6 23 0a fc f3
       -33 -58 -12 3 60 6 37 -28 -1 -24 -65 -42 35 10 -4 -13

backbone.model0.conv2.conv1.weight_quantized i1 [16, 16]
000000 de d5 cb b7 e9 cd dd e0 f2 cf dc d6 f2 a8 7f 80
       -34 -43 -53 -73 -23 -51 -35 -32 -14 -49 -36 -42 -14 -88 127 -128
000010 8b cb c9 a7 c2 80 e1 d9 c3 18 2a 13 11 e1 7f 9d
       -117 -53 -55 -89 -62 -128 -31 -39 -61 24 42 19 17 -31 127 -99
000020 fc 04 57 26 80 e4 5f 7f 58 fb ff 0a 01 0a f8 f5
       -4 4 87 38 -128 -28 95 127 88 -5 -1 10 1 10 -8 -11
000030 11 9e bb f6 9a 0c 80 5a 7f 1a 36 ed eb 15 f3 02
       17 -98 -69 -10 -102 12 -128 90 127 26 54 -19 -21 21 -13 2
000040 12 7f 20 bd a2 29 6f e2 3c ff 7c 40 56 94 70 80
       18 127 32 -67 -94 41 111 -30 60 -1 124 64 86 -108 112 -128
000050 3f 00 20 1a 21 7f ed 18 02 bc 1d 26 80 08 21 22
       63 0 32 26 33 127 -19 24 2 -68 29 38 -128 8 33 34
000060 54 1d 3d 29 18 d1 10 1e 0b 11 05 11 7f 1d 80 5a
       84 29 61 41 24 -47 16 30 11 17 5 17 127 29 -128 90
000070 7f 10 01 2c ca dd f0 2d 80 d8 21 2b 2f ec c9 55
       127 16 1 44 -54 -35 -16 45 -128 -40 33 43 47 -20 -55 85
000080 2c 32 3a cb d8 4d db b3 d8 e1 2b 7f 80 38 0e ed
       44 50 58 -53 -40 77 -37 -77 -40 -31 43 127 -128 56 14 -19
000090 06 f7 ca 06 ce 80 07 dc d9 d3 d4 c6 7f c2 e5 e1
       6 -9 -54 6 -50 -128 7 -36 -39 -45 -44 -58 127 -62 -27 -31
0000a0 c8 02 a1 de 9c d4 d9 f1 87 17 54 d8 a6 7d 80 7f
       -56 2 -95 -34 -100 -44 -39 -15 -121 23 84 -40 -90 125 -128 127
0000b0 d6 d5 ca 9d cc d7 cd d6 d1 c6 e4 c7 d2 9d 7f 80
       -42 -43 -54 -99 -52 -41 -51 -42 -47 -58 -28 -57 -46 -99 127 -128
0000c0 14 80 7f ed 04 2c 08 eb c8 26 ce 05 17 10 12 19
       20 -128 127 -19 4 44 8 -21 -56 38 -50 5 23 16 18 25
0000d0 7f f0 00 57 29 36 06 00 21 94 17 01 80 e8 f9 5f
       127 -16 0 87 41 54 6 0 33 -108 23 1 -128 -24 -7 95
0000e0 80 fb de c5 da b5 1d 38 94 7f 12 4f 3a 5c 16 bf
       -128 -5 -34 -59 -38 -75 29 56 -108 127 18 79 58 92 22 -65
0000f0 5b 12 07 58 d9 ba ff 02 05 b2 1d 80 7f de d1 22
       91 18 7 88 -39 -70 -1 2 5 -78 29 -128 127 -34 -47 34

423_scales f4 [16, 1]
000000 5f c1 25 3c f3 e9 11 3b e5 41 8a 3b b5 ca 4b 3b
       0.010116904 0.0022264689 0.004219281 0.0031096165
000010 58 b2 86 3c bf fa 6e 3c db 02 1c 3b 70 3a 94 3c
       0.016442463 0.01458615 0.0023805413 0.018094271
000020 97 a6 49 3c 85 56 58 3c 82 07 e1 3b 20 90 22 3c
       0.0123077845 0.013204222 0.00686735 0.009922057
000030 89 8b 53 3b 93 c6 79 3c 1f 7b 7b 3c d9 56 7c 3c
       0.0032279214 0.015245098 0.015349179 0.0154015655

423_zero_point i1 [16, 1]
000000 10 75 e1 56 db f9 3e 1a 15 08 bb fc af e7 ff 05
       16 117 -31 86 -37 -7 62 26 21 8 -69 -4 -81 -25 -1 5

423_quantized i1 [16, 9]
000000 ba 80 c1 f0 3a f8 5c 7f 6f 5f c6 7f 54 80 4c 22
       -70 -128 -63 -16 58 -8 92 127 111 95 -58 127 84 -128 76 34
000010 30 7a c0 74 f3 ba 7c 7f 37 80 e0 5b c8 80 01 f9
       48 122 -64 116 -13 -70 124 127 55 -128 -32 91 -56 -128 1 -7
000020 7e 7f 7e 4d a1 96 a5 41 7f 62 ad 80 89 04 80 bc
       126 127 126 77 -95 -106 -91 65 127 98 -83 -128 -119 4 -128 -68
000030 52 7f 9e 0c 46 f7 7f 98 67 b6 80 c8 1b 07 1f 3c
       82 127 -98 12 70 -9 127 -104 103 -74 -128 -56 27 7 31 60
000040 39 05 2b 7f 80 32 4e c4 28 36 2a af 80 8e 63 7f
       57 5 43 127 -128 50 78 -60 40 54 42 -81 -128 -114 99 127
000050 64 6a 7f 10 30 80 c5 da e1 f3 89 b5 0c 80 7f cb
       100 106 127 16 48 -128 -59 -38 -31 -13 -119 -75 12 -128 127 -53
000060 c3 d0 db 30 7f 4d b2 16 20 b3 80 b3 82 f2 8c ca
       -61 -48 -37 48 127 77 -78 22 32 -77 -128 -77 -126 -14 -116 -54
000070 7f 1c 80 f6 9a ed f5 f2 80 7f eb 90 d4 22 15 18
       127 28 -128 -10 -102 -19 -11 -14 -128 127 -21 -112 -44 34 21 24
000080 f1 0e 7f bc db 69 80 f1 d8 14 80 3a 58 dc 7f f5
       -15 14 127 -68 -37 105 -128 -15 -40 20 -128 58 88 -36 127 -11

backbone.model1.conv1.conv1.weight_scales f4 [16, 1]
000000 22 e2 91 3b 95 71 89 3b 1a a4 22 3b 67 93 64 3b
       0.004452006 0.0041944482 0.002481705 0.0034877898
000010 e3 95 b5 3b a1 7c 7f 3b 11 33 7c 3b 7f 15 94 3b
       0.0055415495 0.0038984197 0.0038482586 0.004519164
000020 ca 5b b4 3b 39 e3 80 3b 27 67 8c 3b eb 26 a6 3b
       0.005504106 0.003933337 0.0042847577 0.0050705574
000030 65 1d 07 3b 6b ff 2c 3b 65 57 a7 3b 29 85 b1 3b
       0.0020616886 0.0026397358 0.005106854 0.0054174853

backbone.model1.conv1.conv1.weight_zero_point i1 [16, 1]
000000 e3 29 08 01 87 3c 0c 09 ea 27 0c 0f 31 95 f4 cf
       -29 41 8 1 -121 60 12 9 -22 39 12 15 49 -107 -12 -49

backbone.model1.conv1.conv1.weight_quantized i1 [16, 16]
000000 0d 7f cf ec df dc 80 fd e8 e5 36 db e7 ce ed dd
       13 127 -49 -20 -33 -36 -128 -3 -24 -27 54 -37 -25 -50 -19 -35
000010 7a 00 35 2b 34 fa 1a 9b 45 7f 2f 43 2f ae 80 15
       122 0 53 43 52 -6 26 -101 69 127 47 67 47 -82 -128 21
000020 4b 50 e2 f3 c8 09 7f e2 99 1a 0b 80 30 01 b3 de
       75 80 -30 -13 -56 9 127 -30 -103 26 11 -128 48 1 -77 -34
000030 b8 7f d0 f3 dd de 80 e9 ea f2 e2 91 b3 e4 ff f1
       -72 127 -48 -13 -35 -34 -128 -23 -22 -14 -30 -111 -77 -28 -1 -15
000040 8e a6 b1 d0 8a 8a 87 86 8a 8f 80 85 7f 8a 85 8d
       -114 -90 -79 -48 -118 -118 -121 -122 -118 -113 -128 -123 127 -118 -123 -115
000050 01 69 42 4a 8e 34 72 72 80 c2 7f 3f 52 6d 6d 27
       1 105 66 74 -114 52 114 114 -128 -62 127 63 82 109 109 39
000060 1d 74 1d 13 1a 06 80 11 17 17 7f 26 0b 12 10 17
       29 116 29 19 26 6 -128 17 23 23 127 38 11 18 16 23
000070 ea 34 0c 12 d1 80 45 37 d5 4d 48 df 10 a5 11 7f
       -22 52 12 18 -47 -128 69 55 -43 77 72 -33 16 -91 17 127
000080 00 08 80 7f e9 e0 fd e9 e5 eb f4 df e6 e5 ee dc
       0 8 -128 127 -23 -32 -3 -23 -27 -21 -12 -33 -26 -27 -18 -36
000090 80 d2 1a 1c f1 3d 91 1c 02 0f 12 7f 02 1f 1e 1f
       -128 -46 26 28 -15 61 -111 28 2 15 18 127 2 31 30 31
0000a0 13 7f 0c 07 0a 09 80 06 0c 0b 3c e5 ed 10 05 f7
       19 127 12 7 10 9 -128 6 12 11 60 -27 -19 16 5 -9
0000b0 24 f4 12 15 22 7f 01 bd 23 ba 09 21 0a 5b f5 80
       36 -12 18 21 34 127 1 -67 35 -70 9 33 10 91 -11 -128
0000c0 10 f5 7f 53 71 38 1c 21 07 80 ba 27 6f 34 2f 7a
       16 -11 127 83 113 56 28 33 7 -128 -70 39 111 52 47 122
0000d0 80 12 c7 bf 98 e3 eb b5 bf b0 7f 89 c3 c9 b3 a5
       -128 18 -57 -65 -104 -29 -21 -75 -65 -80 127 -119 -61 -55 -77 -91
0000e0 7f 19 f6 f0 fe f0 33 dc ea fa fb 80 f5 f4 ef 05
       127 25 -10 -16 -2 -16 51 -36 -22 -6 -5 -128 -11 -12 -17 5
0000f0 d2 80 7f 1d de d3 e2 c8 d6 c9 06 d4 f1 cc c3 d9
       -46 -128 127 29 -34 -45 -30 -56 -42 -55 6 -44 -15 -52 -61 -39

426_scales f4 [16, 1]
000000 53 ee cd 3b 23 eb 45 3b 6c d2 2d 3c 83 0a c6 3b
       0.006284514 0.0030199967 0.0106092505 0.0060437336
000010 69 ad 9e 3b cf e9 22 3b da e1 d2 3b 7f 69 71 3b
       0.0048424494 0.00248586 0.006435615 0.0036836562
000020 83 e0 78 3b b7 0e 08 3c e7 b9 19 3c 01 fd 1c 3b
       0.0037975616 0.00830429 0.0093827015 0.0023954513
000030 16 b5 3a 3c 2e b1 ba 3b c7 81 9e 3b 44 b2 8d 3b
       0.011395713 0.005697391 0.004837248 0.0043242294

426_zero_point i1 [16, 1]
000000 e4 97 08 d9 55 6b fc 86 b0 9d f0 8f 09 53 a5 a0
       -28 -105 8 -39 85 107 -4 -122 -80 -99 -16 -113 9 83 -91 -96

426_quantized i1 [16, 9]
000000 95 80 9b d7 33 cb 08 7f ff b7 7f ad 8e dd 80 93
       -107 -128 -101 -41 51 -53 8 127 -1 -73 127 -83 -114 -35 -128 -109
000010 8f 99 1e 7f 1c 08 80 0f ff 03 0b ba 33 d8 98 7f
       -113 -103 30 127 28 8 -128 15 -1 3 11 -70 51 -40 -104 127
000020 f6 cc 80 c1 48 6e 43 7f 80 6f 4a 7b 42 7f 80 75
       -10 -52 -128 -63 72 110 67 127 -128 111 74 123 66 127 -128 117
000030 71 c5 79 5b 62 79 5a 0b 96 7f e3 80 2a fb df 82
       113 -59 121 91 98 121 90 11 -106 127 -29 -128 42 -5 -33 -126
000040 e9 8e 96 7f 9d 80 87 90 c7 80 d2 9d 7f b7 9f 07
       -23 -114 -106 127 -99 -128 -121 -112 -57 -128 -46 -99 127 -73 -97 7
000050 92 92 9c 98 80 7f 8a a7 84 9e fa 0a d9 17 7f 80
       -110 -110 -100 -104 -128 127 -118 -89 -124 -98 -6 10 -39 23 127 -128
000060 e3 d8 ce 99 7f f6 80 78 cd a1 84 88 15 7f 03 1c
       -29 -40 -50 -103 127 -10 -128 120 -51 -95 -124 -120 21 127 3 28
000070 80 e5 11 1d 02 56 57 52 65 80 5b 48 7f 4d 9b c2
       -128 -27 17 29 2 86 87 82 101 -128 91 72 127 77 -101 -62
000080 99 97 7f a8 b2 80 ae b5 9c b2 8a 7f 96 80 ba 88
       -103 -105 127 -88 -78 -128 -82 -75 -100 -78 -118 127 -106 -128 -70 -120

backbone.model1.conv2.conv1.weight_scales f4 [32, 1]
000000 6c 3d 2d 3b 7d 75 10 3b 8c 1a eb 3a df 34 88 3b
       0.0026434315 0.0022042685 0.0017936989 0.0041566934
000010 3a 0f 3e 3b df 24 51 3b fa cb 30 3b bb ce 09 3b
       0.0029000775 0.0031912846 0.0026977048 0.0021027762
000020 fe d6 5c 3b 12 11 7e 3b ba c9 39 3b 21 57 90 3b
       0.0033697481 0.00387675 0.0028348998 0.004404918
000030 73 40 2c 3b 8f c5 67 3b d9 59 60 3b 8c df aa 3b
       0.0026283532 0.0035365557 0.003423324 0.005214637
000040 8a 1a 72 3b 26 ab 2c 3b 12 67 89 3b 27 d5 36 3b
       0.0036942088 0.002634713 0.004193195 0.0027898045
000050 8d 1b 8b 3b f9 3a 12 3b aa f9 53 3b fb 96 8a 3b
       0.0042452277 0.0022312982 0.0032344856 0.004229424
000060 19 48 84 3b 8d 94 04 3b 03 3a 40 3b 61 96 35 3b
       0.004036915 0.0020230145 0.0029331453 0.002770804
000070 a4 e7 4a 3b 0e c1 68 3b bc 0a 7a 3b fa e7 e5 3a
       0.0030960822 0.003551546 0.003815337 0.0017540448

backbone.model1.conv2.conv1.weight_zero_point i1 [32, 1]
000000 04 b5 cc 1c eb 20 d1 b0 ef e9 10 d6 e8 40 1e 1d
       4 -75 -52 28 -21 32 -47 -80 -17 -23 16 -42 -24 64 30 29
000010 ac 12 1c e7 22 db fc 55 e2 ea cf e2 d3 b4 e2 f3
       -84 18 28 -25 34 -37 -4 85 -30 -22 -49 -30 -45 -76 -30 -13

backbone.model1.conv2.conv1.weight_quantized i1 [32, 16]
000000 cf 80 dd ee 7f cc e3 06 09 fb 4a d5 f3 11 eb b1
       -49 -128 -35 -18 127 -52 -29 6 9 -5 74 -43 -13 17 -21 -79
000010 94 7f df b9 9e 54 f6 2e d7 cd 80 f8 9d e2 c3 c9
       -108 127 -33 -71 -98 84 -10 46 -41 -51 -128 -8 -99 -30 -61 -55
000020 18 7f 45 25 a3 91 81 98 d9 76 d4 24 54 80 b1 f1
       24 127 69 37 -93 -111 -127 -104 -39 118 -44 36 84 -128 -79 -15
000030 2c 25 2e 12 80 25 0b 1e 14 18 2b 23 1a 7f 31 19
       44 37 46 18 -128 37 11 30 20 24 43 35 26 127 49 25
000040 fe 7f e0 31 fa dd fd cf ec 80 f9 17 e0 ee f2 a4
       -2 127 -32 49 -6 -35 -3 -49 -20 -128 -7 23 -32 -18 -14 -92
000050 fc a3 03 e4 31 33 6b 80 18 20 f6 7f c3 c0 e3 1e
       -4 -93 3 -28 49 51 107 -128 24 32 -10 127 -61 -64 -29 30
000060 18 27 7f 80 a2 02 dd e5 d0 4b b7 03 49 91 20 d4
       24 39 127 -128 -94 2 -35 -27 -48 75 -73 3 73 -111 32 -44
000070 81 7f 80 b8 b3 b7 a7 0e 1f 01 bd d5 b3 78 80 0e
       -127 127 -128 -72 -77 -73 -89 14 31 1 -67 -43 -77 120 -128 14
000080 75 d2 ff fb e4 b5 7f ea ee fd 44 14 df d4 80 f6
       117 -46 -1 -5 -28 -75 127 -22 -18 -3 68 20 -33 -44 -128 -10
000090 f7 c5 ed b8 dd 92 ec 80 ec 24 de 7f ad d2 e5 dc
       -9 -59 -19 -72 -35 -110 -20 -128 -20 36 -34 127 -83 -46 -27 -36
0000a0 7f ff 27 0f 0e 0c 80 1a 10 5e 07 36 79 d4 d1 23
       127 -1 39 15 14 12 -128 26 16 94 7 54 121 -44 -47 35
0000b0 f2 be d3 80 b6 ac c9 16 de c4 db b6 e4 88 d9 7f
       -14 -66 -45 -128 -74 -84 -55 22 -34 -60 -37 -74 -28 -120 -39 127
0000c0 ba f9 c4 70 b9 fc 54 40 f2 80 7f ea 32 e1 3c 02
       -70 -7 -60 112 -71 -4 84 64 -14 -128 127 -22 50 -31 60 2
0000d0 80 4b 7f 6e 6e f8 25 32 26 ff 6b 3f 02 7f 44 4c
       -128 75 127 110 110 -8 37 50 38 -1 107 63 2 127 68 76
0000e0 fa 80 b3 4c ed c0 4a 7f 2f e5 fd c2 08 eb 17 1a
       -6 -128 -77 76 -19 -64 74 127 47 -27 -3 -62 8 -21 23 26
0000f0 29 46 1b 7f 1e 17 80 0e 15 0f c9 41 2c 12 11 22
       41 70 27 127 30 23 -128 14 21 15 -55 65 44 18 17 34

429_scales f4 [32, 1]
000000 d5 cd f5 3b b2 02 35 3c 68 fc 12 3c 3d 61 1b 3c
       0.0075013437 0.011048006 0.008971311 0.009483633
000010 54 ec 56 3c 1f 4b 3a 3b e2 97 dd 3b 34 c5 8c 3b
       0.013117868 0.0028426123 0.0067624906 0.0042959694
000020 88 dc 63 3b e4 1b 80 3b 1d 81 e0 3b 35 6e 9e 3b
       0.0034768898 0.003909575 0.006851329 0.004834915
000030 28 76 87 3b 08 e8 fb 3b df 18 76 3b d0 fe bd 3b
       0.0041339584 0.0076875724 0.0037551445 0.0057981983
000040 95 a8 71 3b 79 97 52 3c 6d f7 0f 3c 00 3c d0 3b
       0.0036874164 0.012853497 0.008787018 0.006354809
000050 56 36 ea 3b c3 5a 45 3c a4 1d ca 3b 4c 06 de 3b
       0.0071475906 0.012045565 0.006168084 0.006775653
000060 9a 37 1e 3c 19 32 17 3c f7 1b 52 3b 94 9c ff 3b
       0.009656811 0.009228253 0.0032060125 0.007800648
000070 56 70 5f 3c 7e 82 5a 3c e0 5f 1a 3c 0e 87 06 3c
       0.013637623 0.013336776 0.009422272 0.0082109105

429_zero_point i1 [32, 1]
000000 ec c3 f4 0d de a1 3e 19 50 21 43 5c 2c 9a 1d a4
       -20 -61 -12 13 -34 -95 62 25 80 33 67 92 44 -102 29 -92
000010 3d 01 f5 55 b6 d3 33 e1 34 18 62 df 01 e8 e2 ee
       61 1 -11 85 -74 -45 51 -31 52 24 98 -33 1 -24 -30 -18

429_quantized i1 [32, 9]
000000 bc 80 a8 d7 f5 bb 40 7f 3d ad c3 dc b4 a4 d5 17
       -68 -128 -88 -41 -11 -69 64 127 61 -83 -61 -36 -76 -92 -43 23
000010 7f 80 03 fc 13 f6 7f 57 b1 80 b9 7f ec b8 76 2e
       127 -128 3 -4 19 -10 127 87 -79 -128 -71 127 -20 -72 118 46
000020 80 4e 34 b9 c7 b7 da d3 80 b7 ff 7f 02 a9 fc dc
       -128 78 52 -71 -57 -73 -38 -45 -128 -73 -1 127 2 -87 -4 -36
000030 c6 7f 9f e3 04 80 10 7f 37 ff 80 25 30 48 43 7f
       -58 127 -97 -29 4 -128 16 127 55 -1 -128 37 48 72 67 127
000040 44 fb 70 80 a2 1f e8 be 96 7f 0d 80 37 76 71 36
       68 -5 112 -128 -94 31 -24 -66 -106 127 13 -128 55 118 113 54
000050 35 e8 f8 63 14 80 2a 7f d9 92 38 77 fd 1e 80 5d
       53 -24 -8 99 20 -128 42 127 -39 -110 56 119 -3 30 -128 93
000060 38 2e 7f 65 47 75 45 80 7f 65 43 6d 50 9c bf 80
       56 46 127 101 71 117 69 -128 127 101 67 109 80 -100 -65 -128
000070 2b 50 b1 7f 3e 80 b0 8f 81 92 85 b8 7f 98 0b ba
       43 80 -79 127 62 -128 -80 -113 -127 -110 -123 -72 127 -104 11 -70
000080 e1 59 80 7f 1c 8c 16 b8 9d b4 06 7f 80 c4 b5 af
       -31 89 -128 127 28 -116 22 -72 -99 -76 6 127 -128 -60 -75 -81
000090 7f 1b 05 4b 83 80 5f 66 5b c5 80 f5 28 7f fe 09
       127 27 5 75 -125 -128 95 102 91 -59 -128 -11 40 127 -2 9
0000a0 26 0a 80 8c aa fc 3d d3 34 7f 21 3f 7f 28 54 80
       38 10 -128 -116 -86 -4 61 -45 52 127 33 63 127 40 84 -128
0000b0 5b 6e 7a 5d 9f df 9b dc 7f 9e 96 80 c1 13 81 b8
       91 110 122 93 -97 -33 -101 -36 127 -98 -106 -128 -63 19 -127 -72
0000c0 7f b2 80 03 a5 d6 04 71 29 d1 09 7f 00 80 1e 80
       127 -78 -128 3 -91 -42 4 113 41 -47 9 127 0 -128 30 -128
0000d0 8a 9a ad f0 d5 2d 7f 22 36 7f 28 25 80 37 39 14
       -118 -102 -83 -16 -43 45 127 34 54 127 40 37 -128 55 57 20
0000e0 39 44 0c 80 29 98 21 ee 06 7f 80 18 01 7f bd 70
       57 68 12 -128 41 -104 33 -18 6 127 -128 24 1 127 -67 112
0000f0 e3 5a c0 19 80 03 f2 7f c5 e4 06 fc 09 f0 17 80
       -29 90 -64 25 -128 3 -14 127 -59 -28 6 -4 9 -16 23 -128

backbone.model2.conv1.conv1.weight_scales f4 [32, 1]
000000 d5 d2 27 3b b0 a8 58 3b 77 a6 47 3b 7d a7 6e 3b
       0.0025607843 0.003305953 0.003046421 0.0036415749
000010 e3 f8 29 3b c8 21 3d 3b 0c b0 62 3b 70 74 2d 3b
       0.0025935702 0.0028859247 0.0034589795 0.0026467107
000020 1f c4 2b 3b dc 5d 0e 3b 0b dc 43 3b 14 66 8e 3b
       0.0026209427 0.0021723425 0.0029885795 0.0043456648
000030 20 40 47 3b 7a ac 1a 3b b8 df 5c 3b 29 4f 26 3b
       0.0030403212 0.002360134 0.0033702683 0.0025376773
000040 88 f0 35 3b b1 4c 32 3b 27 1b 11 3b 52 d8 13 3b
       0.0027761776 0.0027206356 0.0022141428 0.0022559357
000050 05 49 31 3b 85 e0 01 3b 42 02 17 3b ae 28 2c 3b
       0.002705158 0.0019817662 0.0023042117 0.0026269364
000060 00 a3 53 3b 1e 3a 3c 3b 8d b1 24 3b 85 d4 34 3b
       0.00322932 0.0028721164 0.0025130243 0.0027592492
000070 e8 ce 54 3b af ae 2b 3b 5c 12 1e 3b d2 69 0c 3b
       0.0032471959 0.0026196649 0.002411983 0.0021425379

backbone.model2.conv1.conv1.weight_zero_point i1 [32, 1]
000000 e1 40 46 ba 18 17 17 02 df 03 08 16 12 1c 02 fe
       -31 64 70 -70 24 23 23 2 -33 3 8 22 18 28 2 -2
000010 3a d7 28 e9 fd fe f7 20 31 03 dc e5 ed 09 e9 14
       58 -41 40 -23 -3 -2 -9 32 49 3 -36 -27 -19 9 -23 20

backbone.model2.conv1.conv1.weight_quantized i1 [32, 32]
000000 f5 b9 1f e6 b5 f5 47 44 c9 0f ca ea 85 7a 08 e9
       -11 -71 31 -26 -75 -11 71 68 -55 15 -54 -22 -123 122 8 -23
000010 e1 e2 d2 7f bd bf 80 f4 9a cb d8 bd 0c da e9 01
       -31 -30 -46 127 -67 -65 -128 -12 -102 -53 -40 -67 12 -38 -23 1
000020 fd 5f d8 62 05 71 43 75 44 65 6d 54 4b 33 0c 3a
       -3 95 -40 98 5 113 67 117 68 101 109 84 75 51 12 58
000030 7a 80 d8 2e 56 57 4c 08 61 65 3e 09 52 d3 7f 6c
       122 -128 -40 46 86 87 76 8 97 101 62 9 82 -45 127 108
000040 60 56 47 19 65 80 da 67 23 3c 74 7f 7a 75 17 5f
       96 86 71 25 101 -128 -38 103 35 60 116 127 122 117 23 95
000050 2e 3a 6d 3e 68 49 1b 4f 74 5b 46 22 67 32 2a 5f
       46 58 109 62 104 73 27 79 116 91 70 34 103 50 42 95
000060 c6 a9 d0 c1 9f 87 a0 b7 c2 82 ae 88 aa aa 9c c4
       -58 -87 -48 -63 -97 -121 -96 -73 -62 -126 -82 -120 -86 -86 -100 -60
000070 c8 aa a2 a9 7f cc c8 c4 ab 80 ec dc ad b3 4a db
       -56 -86 -94 -87 127 -52 -56 -60 -85 -128 -20 -36 -83 -77 74 -37
000080 54 fd 4f f4 bb c2 03 7f cb f1 02 4f fe 45 f4 a9
       84 -3 79 -12 -69 -62 3 127 -53 -15 2 79 -2 69 -12 -87
000090 cf d8 0d d4 39 a3 4c 47 26 fa 54 1b 80 f7 cd 17
       -49 -40 13 -44 57 -93 76 71 38 -6 84 27 -128 -9 -51 23
0000a0 2f 40 17 1e 12 09 c2 17 9b e7 02 7f db 08 12 80
       47 64 23 30 18 9 -62 23 -101 -25 2 127 -37 8 18 -128
0000b0 22 06 07 c1 38 b9 fa 0e 59 23 39 dc f3 f6 01 01
       34 6 7 -63 56 -71 -6 14 89 35 57 -36 -13 -10 1 1
0000c0 2f 5c 51 41 52 cc c5 50 1e cd 30 80 46 7f e6 22
       47 92 81 65 82 -52 -59 80 30 -51 48 -128 70 127 -26 34
0000d0 0d 57 34 07 08 0d 1a 29 df f0 18 17 1b 3a 0f 42
       13 87 52 7 8 13 26 41 -33 -16 24 23 27 58 15 66
0000e0 12 f1 d9 06 03 15 56 dc 32 7f 32 37 80 0b f8 80
       18 -15 -39 6 3 21 86 -36 50 127 50 55 -128 11 -8 -128
0000f0 3d 17 f6 08 11 1e d7 0d be 3a 35 20 a4 e9 0c f0
       61 23 -10 8 17 30 -41 13 -66 58 53 32 -92 -23 12 -16

432_scales f4 [32, 1]
000000 a9 6d ea 3b eb 52 2d 3b d2 35 d7 3b ea a3 6e 3b
       0.007154186 0.0026447128 0.006567695 0.0036413618
000010 ed 2e 24 3c 26 78 af 3b cf b5 ba 3b 4a 1d 0b 3c
       0.010020954 0.005354899 0.005697943 0.00849087
000020 4a f8 af 3b 7d cc be 3b 45 b7 d0 3b 02 7d 76 3b
       0.0053701745 0.0058227167 0.0063695037 0.0037611132
000030 bf bb bd 3b 5c 1b 00 3c e3 7c 46 3b df 07 0d 3c
       0.0057902033 0.007819023 0.003028684 0.008607834
000040 8c 75 15 3c 4a f1 0d 3c 65 57 32 3c a7 4c 61 3c
       0.009122264 0.008663485 0.010885094 0.0137511855
000050 79 0e a1 3b c2 12 d1 3b d7 1f de 3b 31 0d 48 3b
       0.0049150554 0.00638041 0.006778698 0.003052544
000060 37 01 8d 3b d3 b8 d0 3b 17 da a4 3b 66 0a 05 3c
       0.0043031233 0.006369689 0.005030881 0.008120155
000070 e9 50 6c 3b da f8 04 3b 46 ce 38 3b db 2e 06 3c
       0.0036058968 0.0020289929 0.002819912 0.008189882

432_zero_point i1 [32, 1]
000000 18 c9 ba 3b b1 db 30 c8 26 01 15 a5 b8 bb 91 0e
       24 -55 -70 59 -79 -37 48 -56 38 1 21 -91 -72 -69 -111 14
000010 17 14 1e 11 53 fa 02 73 54 d1 6b e6 55 6c 3f 07
       23 20 30 17 83 -6 2 115 84 -47 107 -26 85 108 63 7

432_quantized i1 [32, 9]
000000 68 7f 6a fa 80 f3 ee f2 d2 e5 79 67 a2 00 7f e1
       104 127 106 -6 -128 -13 -18 -14 -46 -27 121 103 -94 0 127 -31
000010 80 1e 80 d6 a3 ad 7f 0a 8b d2 cc 33 2b 22 7f 8d
       -128 30 -128 -42 -93 -83 127 10 -117 -46 -52 51 43 34 127 -115
000020 80 20 2b e8 a9 7f 80 b0 da 96 c6 9c bb 12 7e 45
       -128 32 43 -24 -87 127 -128 -80 -38 -106 -58 -100 -69 18 126 69
000030 be ff 7f ad a6 80 24 7f 25 11 80 09 59 ba 5c b9
       -66 -1 127 -83 -90 -128 36 127 37 17 -128 9 89 -70 92 -71
000040 95 b8 80 b5 7f ca 4d ce 31 7a 5b 5a 69 7f ce 80
       -107 -72 -128 -75 127 -54 77 -50 49 122 91 90 105 127 -50 -128
000050 b0 2c 71 68 80 7f 25 03 ad e4 f8 7d 0f d9 7f 71
       -80 44 113 104 -128 127 37 3 -83 -28 -8 125 15 -39 127 113
000060 80 f1 63 b3 7f 44 80 d0 a4 b0 cf a2 da 97 c0 80
       -128 -15 99 -77 127 68 -128 -48 -92 -80 -49 -94 -38 -105 -64 -128
000070 15 87 eb 7f 1b 7f b6 80 f8 a0 98 9b a1 8e a3 0f
       21 -121 -21 127 27 127 -74 -128 -8 -96 -104 -101 -95 -114 -93 15
000080 80 d1 7f ab 92 f6 a3 39 3d d9 7f 58 80 1d f2 e4
       -128 -47 127 -85 -110 -10 -93 57 61 -39 127 88 -128 29 -14 -28
000090 80 95 20 10 6d 2a 08 7f 39 29 22 47 86 80 5d 2c
       -128 -107 32 16 109 42 8 127 57 41 34 71 -122 -128 93 44
0000a0 02 7f 02 16 2b 1f 80 7f 21 fd 36 20 18 09 26 7f
       2 127 2 22 43 31 -128 127 33 -3 54 32 24 9 38 127
0000b0 80 4a ec e1 7f 80 07 1d 5e 1a 4a 68 03 bf c0 fc
       -128 74 -20 -31 127 -128 7 29 94 26 74 104 3 -65 -64 -4
0000c0 80 25 7f 92 1b 6f 3d a8 8c 6b 56 80 7f 39 cb 4f
       -128 37 127 -110 27 111 61 -88 -116 107 86 -128 127 57 -53 79
0000d0 26 80 2d 76 9f 68 7f 7f 4b 7f 7c 05 c8 0a 0a 80
       38 -128 45 118 -97 104 127 127 75 127 124 5 -56 10 10 -128
0000e0 2a 7f 48 95 0f b5 9b 80 86 c0 7f 4c 80 7f 59 05
       42 127 72 -107 15 -75 -101 -128 -122 -64 127 76 -128 127 89 5
0000f0 38 72 5b 90 80 a3 c0 7f b1 f9 66 e4 f5 12 56 3c
       56 114 91 -112 -128 -93 -64 127 -79 -7 102 -28 -11 18 86 60

backbone.model2.conv2.conv1.weight_scales f4 [64, 1]
000000 e9 72 c2 3a ce 86 2f 3b fa b5 12 3b bc a1 33 3b
       0.0014835271 0.002678323 0.0022386299 0.0027409634
000010 be c5 28 3b 29 b7 29 3b 21 0d 13 3b 8a 5f 0f 3b
       0.002575263 0.0025896525 0.0022438245 0.0021877014
000020 fe 43 23 3b 1b 38 06 3b 36 e3 3c 3b 1f 1d ec 3a
       0.0024912353 0.0020480219 0.0028821952 0.001801405
000030 d9 20 13 3b a7 c0 de 3a 0b 8d fe 3a 68 b8 e3 3a
       0.0022449999 0.0016994671 0.0019420696 0.0017373683
000040 d1 30 dc 3a 39 fb 15 3b be 91 1a 3b 39 ef 07 3b
       0.0016799216 0.0022885336 0.0023585404 0.0020741953
000050 17 40 be 3a 61 99 12 3b 87 ae bb 3a c5 8e eb 3a
       0.001451495 0.0022369253 0.0014318981 0.0017971626
000060 49 6d e5 3a 10 96 12 3b ed 31 14 3b 4e 12 cb 3a
       0.0017503883 0.0022367276 0.0022612766 0.0015493126
000070 1d d8 15 3b 23 99 db 3a 20 d1 01 3b 4d ac dd 3a
       0.002286441 0.0016754012 0.0019808486 0.0016912312
000080 0e bb f8 3a b1 4a eb 3a 8e 67 f3 3a 6b 77 20 3b
       0.0018976645 0.0017951337 0.001857029 0.002448524
000090 b8 25 c9 3a 37 0f 06 3b c8 11 24 3b 44 4e 47 3b
       0.0015346324 0.0020455846 0.0025035013 0.003041164
0000a0 09 1d 11 3b 03 59 0d 3b 91 4d 1a 3b 62 98 f2 3a
       0.002214255 0.0021567948 0.0023544768 0.0018508548
0000b0 a4 16 01 3b 75 1d 08 3b 00 e1 f0 3a f5 1a 23 3b
       0.0019697333 0.002076951 0.0018377602 0.0024887894
0000c0 6f 7f ef 3a 42 13 c6 3a 79 29 07 3b a5 f0 0b 3b
       0.0018272231 0.001511194 0.0020624085 0.0021353152
0000d0 02 46 fb 3a 06 4c 40 3b 32 f2 c8 3a e6 f4 0c 3b
       0.0019170644 0.0029342188 0.0015330969 0.0021508276
0000e0 ce 0b 0f 3b 8b 12 2b 3b a8 65 1e 3b 90 fb 2d 3b
       0.0021827105 0.0026103582 0.0024169479 0.0026547648
0000f0 79 f9 1e 3b 30 c6 36 3b 10 ba 05 3b 6a 3a 08 3b
       0.0024257584 0.0027889125 0.0020405091 0.002078677

backbone.model2.conv2.conv1.weight_zero_point i1 [64, 1]
000000 26 08 12 01 1c 09 1e de 0f f6 f3 f9 03 0c ea 05
       38 8 18 1 28 9 30 -34 15 -10 -13 -7 3 12 -22 5
000010 05 0d 09 18 13 0e 02 02 eb 0c e3 13 dc f3 17 1a
       5 13 9 24 19 14 2 2 -21 12 -29 19 -36 -13 23 26
000020 01 ef dd b7 10 01 0f 0d 0f 19 e0 fe e0 e8 fe ea
       1 -17 -35 -73 16 1 15 13 15 25 -32 -2 -32 -24 -2 -22
000030 d3 fc e5 d9 ef 2b e7 c7 f6 12 e4 f0 f1 fd 16 ed
       -45 -4 -27 -39 -17 43 -25 -57 -10 18 -28 -16 -15 -3 22 -19

backbone.model2.conv2.conv1.weight_quantized i1 [64, 32]
000000 7f d0 6c 43 01 d1 68 da 50 27 bd 7f ee 5f e7 03
       127 -48 108 67 1 -47 104 -38 80 39 -67 127 -18 95 -25 3
000010 ee 1a 37 a6 f8 f9 be 63 4b d8 3d 3a eb 80 0a dc
       -18 26 55 -90 -8 -7 -66 99 75 -40 61 58 -21 -128 10 -36
000020 c0 d5 e8 14 30 4b 1e f6 1d c4 34 b4 7f 4e 12 02
       -64 -43 -24 20 48 75 30 -10 29 -60 52 -76 127 78 18 2
000030 fe 28 f4 f0 4e 2e f3 c9 09 38 2b c7 80 10 31 08
       -2 40 -12 -16 78 46 -13 -55 9 56 43 -57 -128 16 49 8
000040 32 31 1d 19 27 0a f7 2d 04 11 3a 50 0e 40 e8 ee
       50 49 29 25 39 10 -9 45 4 17 58 80 14 64 -24 -18
000050 3a d3 2a 0b 80 f2 ea 34 2f 31 f4 38 7f 3f eb 4b
       58 -45 42 11 -128 -14 -22 52 47 49 -12 56 127 63 -21 75
000060 26 d4 fb c3 7f 0b eb e6 d4 d1 0a 08 0d 15 f7 a7
       38 -44 -5 -61 127 11 -21 -26 -44 -47 10 8 13 21 -9 -89
000070 ef 00 ec ed fb 80 dc 18 07 ff 1b 0e 1f 88 d3 f6
       -17 0 -20 -19 -5 -128 -36 24 7 -1 27 14 31 -120 -45 -10
000080 d4 4f ae f1 f6 78 1c 80 0f 5d 4c 42 36 14 3c db
       -44 79 -82 -15 -10 120 28 -128 15 93 76 66 54 20 60 -37
000090 d0 06 00 a8 18 cf 2e 7f 22 2c dd 36 37 e6 6f 0e
       -48 6 0 -88 24 -49 46 127 34 44 -35 54 55 -26 111 14
0000a0 f6 fa df 05 10 16 46 e1 15 15 2f 0c 18 70 df d2
       -10 -6 -33 5 16 22 70 -31 21 21 47 12 24 112 -33 -46
0000b0 d5 13 22 b8 b9 fc 2d 3e 35 80 7f 23 ff 32 3e 1c
       -43 19 34 -72 -71 -4 45 62 53 -128 127 35 -1 50 62 28
0000c0 5a 15 06 10 dc 16 54 c1 66 11 16 df 1d c2 f3 2f
       90 21 6 16 -36 22 84 -63 102 17 22 -33 29 -62 -13 47
0000d0 0a 30 79 50 7f d0 3d c3 06 2e 05 2b 80 fd 2b 2e
       10 48 121 80 127 -48 61 -61 6 46 5 43 -128 -3 43 46
0000e0 b7 a8 15 80 c4 81 03 e8 c3 d2 dd 7f 04 95 fa bc
       -73 -88 21 -128 -60 -127 3 -24 -61 -46 -35 127 4 -107 -6 -68
0000f0 23 f4 d2 de 8e 0b a8 33 bf a5 8a 2e e7 be 99 d8
       35 -12 -46 -34 -114 11 -88 51 -65 -91 -118 46 -25 -66 -103 -40

backbone.model2.conv2.conv1.bias_quantized i1 [64]
000000 7f 2e ea 0f 2d f0 f5 cf ba 25 f7 1d f5 fc 14 f1
       127 46 -22 15 45 -16 -11 -49 -70 37 -9 29 -11 -4 20 -15
000010 f4 ce 36 03 03 c2 ff 0a 1e 51 ac f0 08 80 1c ab
       -12 -50 54 3 3 -62 -1 10 30 81 -84 -16 8 -128 28 -85
000020 12 06 11 a0 0e c1 fe d7 1f b4 1c 16 e8 f6 cd 80
       18 6 17 -96 14 -63 -2 -41 31 -76 28 22 -24 -10 -51 -128
000030 1a 18 50 0a f5 ff e7 0f d8 11 b0 e2 3a d7 ef a8
       26 24 80 10 -11 -1 -25 15 -40 17 -80 -30 58 -41 -17 -88

435_scales f4 [64, 1]
000000 8c 2d 95 3b be 47 25 3b c1 bf aa 3b ea bb dc 3b
       0.0045525488 0.0025219764 0.005210847 0.0067362683
000010 bf f7 d0 3a 11 46 41 3b cf 76 09 3b b2 25 f9 3b
       0.0015942975 0.0029491226 0.0020975356 0.0076033706
000020 8b be 87 3b 62 da af 3b c5 3c d4 3a 12 24 22 3b
       0.0041425875 0.0053666094 0.0016192427 0.0024740738
000030 c9 84 5c 3b 3f 42 0f 3c fa d2 82 3b a7 7a c0 3b
       0.0033648482 0.008743822 0.0039924355 0.0058739963
000040 ab e7 c3 3b 86 35 94 3b 36 c0 5a 3b 76 ba 31 3b
       0.0059785447 0.004522982 0.0033378727 0.0027119196
000050 4b 1e f0 3b de f7 a2 3b dd de 44 3c 53 64 e3 3a
       0.00732783 0.0049733957 0.012016025 0.0017348625
000060 3c 0f b8 3b bd df a5 3b d5 d7 9f 3b 8e 1a d8 3b
       0.0056170505 0.005062072 0.004878024 0.0065949624
000070 77 66 d3 3a ee 35 c5 3b c4 11 a3 3b 6e 24 c2 3b
       0.0016128559 0.006018392 0.004976483 0.005924753
000080 d9 a9 b0 3b a4 ed c0 3a 08 80 0e 3c 0b 06 39 3b
       0.005391341 0.001471926 0.008697517 0.0028232362
000090 c7 49 01 3c a5 10 d1 3a 05 d8 e4 3a ab ae c0 3a
       0.007891125 0.0015950395 0.0017459398 0.0014700493
0000a0 19 7b d3 3b 24 ab 3d 3b 42 21 bd 3b 7b 5f fe 3b
       0.0064538834 0.002894112 0.005771787 0.007762847
0000b0 53 c5 bc 3b ce 70 31 3b ea 4b ec 3b ba 51 f0 3b
       0.0057608276 0.0027075293 0.007211198 0.0073339613
0000c0 0b ba b4 3b 48 b2 c6 3b b0 e2 90 3b 7d 21 b9 3b
       0.005515342 0.0060637332 0.0044215545 0.005649744
0000d0 a7 08 d9 3b 1f 26 12 3b 65 53 df 3b f2 94 90 3a
       0.006623346 0.0022300554 0.0068153613 0.0011030717
0000e0 05 b0 ca 3b c3 0d 16 3b 50 51 09 3b fe 61 d9 3a
       0.006185534 0.0022896386 0.0020953007 0.001658499
0000f0 b7 7c da 3a ec 4d 21 3b 6b 55 a2 3b d5 c8 be 3b
       0.0016669248 0.0024613095 0.0049540303 0.005822281

435_zero_point i1 [64, 1]
000000 f9 6f 0c f1 80 44 4d dc 46 06 7f 7f a1 d9 cb 0d
       -7 111 12 -15 -128 68 77 -36 70 6 127 127 -95 -39 -53 13
000010 11 c4 af 7f ca 04 f2 7f 23 99 54 ff 7f 11 14 10
       17 -60 -81 127 -54 4 -14 127 35 -103 84 -1 127 17 20 16
000020 5b 80 2f 4f 66 7f a0 80 b4 a3 1f 41 da 7f bf 2d
       91 -128 47 79 102 127 -96 -128 -76 -93 31 65 -38 127 -65 45
000030 e7 02 2a 19 f1 80 39 80 1c 7f 7b 80 7f 8e 56 11
       -25 2 42 25 -15 -128 57 -128 28 127 123 -128 127 -114 86 17

435_quantized i1 [64, 9]
000000 80 0f 79 95 35 7f 8c 2d 6f e7 3f 4c 20 80 7f 30
       -128 15 121 -107 53 127 -116 45 111 -25 63 76 32 -128 127 48
000010 00 3a 7f 7d 6a 24 d3 0c 80 b9 d5 56 3b c1 04 7f
       0 58 127 125 106 36 -45 12 -128 -71 -43 86 59 -63 4 127
000020 18 80 f1 32 3f 7f 3d c6 57 62 91 a3 63 3b 80 04
       24 -128 -15 50 63 127 61 -58 87 98 -111 -93 99 59 -128 4
000030 a7 d4 7f 8d 73 74 7f ef ca fd a2 16 a3 80 cc 07
       -89 -44 127 -115 115 116 127 -17 -54 -3 -94 22 -93 -128 -52 7
000040 a8 c3 7f e6 80 f1 fc ab 32 05 10 65 08 ec 7f cb
       -88 -61 127 -26 -128 -15 -4 -85 50 5 16 101 8 -20 127 -53
000050 80 7f 28 80 43 9f ac d9 cc 02 0e d2 f4 09 80 ef
       -128 127 40 -128 67 -97 -84 -39 -52 2 14 -46 -12 9 -128 -17
000060 bf aa 3d 30 50 31 66 52 74 c9 80 ee bc 80 db c7
       -65 -86 61 48 80 49 102 82 116 -55 -128 -18 -68 -128 -37 -57
000070 16 27 e1 7f 31 d3 2b 80 d2 be 47 d4 df 7f e7 80
       22 39 -31 127 49 -45 43 -128 -46 -66 71 -44 -33 127 -25 -128
000080 f5 1d 49 6c 3f 7f 19 c7 43 7f 80 f5 46 ae 93 48
       -11 29 73 108 63 127 25 -57 67 127 -128 -11 70 -82 -109 72
000090 5c a7 2f ac 80 3f a2 7f 6e be da d7 dc 7f 2c 80
       92 -89 47 -84 -128 63 -94 127 110 -66 -38 -41 -36 127 44 -128
0000a0 eb fc 0a 22 cc 1d 3b 80 7f ca 85 04 e3 ed e2 94
       -21 -4 10 34 -52 29 59 -128 127 -54 -123 4 -29 -19 -30 -108
0000b0 80 65 1b cd a5 24 85 80 5a 95 de 7f a7 7f 28 8e
       -128 101 27 -51 -91 36 -123 -128 90 -107 -34 127 -89 127 40 -114
0000c0 50 13 80 6b ff 82 ea 28 c9 c2 80 7f 28 2a 9b f2
       80 19 -128 107 -1 -126 -22 40 -55 -62 -128 127 40 42 -101 -14
0000d0 0c 22 64 a6 d1 e0 80 d0 7f 1d ad 2d 09 80 0b ef
       12 34 100 -90 -47 -32 -128 -48 127 29 -83 45 9 -128 11 -17
0000e0 ee e0 83 80 7f c3 a1 d5 a5 a3 b6 99 80 58 67 59
       -18 -32 -125 -128 127 -61 -95 -43 -91 -93 -74 -103 -128 88 103 89
0000f0 5d 7f 50 03 7f a1 c3 67 80 23 5b ea 90 80 af fb
       93 127 80 3 127 -95 -61 103 -128 35 91 -22 -112 -128 -81 -5

436_quantized i1 [64]
000000 0b 22 06 50 39 08 d8 0a 06 22 53 3c b5 fa c4 ff
       11 34 6 80 57 8 -40 10 6 34 83 60 -75 -6 -60 -1
000010 ff 24 01 c2 20 fe 0a 20 0b 25 fe 0e ff 00 1a 13
       -1 36 1 -62 32 -2 10 32 11 37 -2 14 -1 0 26 19
000020 48 cc ee 7f b5 22 5e f4 42 46 13 18 e4 15 13 e3
       72 -52 -18 127 -75 34 94 -12 66 70 19 24 -28 21 19 -29
000030 0a 0e 2b 08 e7 02 0d cd 2b 80 64 0f 3a 58 de 18
       10 14 43 8 -25 2 13 -51 43 -128 100 15 58 88 -34 24

backbone.model3.conv1.conv1.weight_scales f4 [64, 1]
000000 70 40 26 3b 36 48 f2 3a fc d4 10 3b e9 06 13 3b
       0.0025367998 0.0018484655 0.0022099605 0.0022434539
000010 83 78 00 3b 3e 49 0a 3b 10 47 08 3b d6 91 21 3b
       0.001960308 0.0021100785 0.002079431 0.0024653575
000020 fc 4e 00 3b a1 1a f9 3a a6 b2 0c 3b 54 63 f2 3a
       0.0019578328 0.0019005128 0.0021468787 0.0018492737
000030 ff f3 d2 3a 88 63 0b 3b 91 e8 09 3b f1 ea 1e 3b
       0.0016094445 0.0021269042 0.0021043161 0.0024248923
000040 41 83 fe 3a 28 3c ed 3a 13 9c 0e 3b 1a e0 de 3a
       0.0019417779 0.0018099593 0.0021760508 0.0017004043
000050 e3 5c 0c 3b 55 23 e2 3a 0b 5b d5 3a f7 f4 08 3b
       0.002141767 0.0017252961 0.0016277743 0.0020897964
000060 b2 21 22 3b 03 4b 07 3b 88 6a 23 3b a3 4f fa 3a
       0.0024739322 0.0020644076 0.0024935324 0.001909722
000070 cd b0 cd 3a ff 06 13 3b 7d 57 f9 3a 12 0a bd 3a
       0.001569295 0.002243459 0.0019023266 0.0014422557
000080 dd 18 fc 3a 56 4a 15 3b 1d 10 18 3b 57 74 01 3b
       0.0019233484 0.0022779903 0.0023202964 0.0019753182
000090 61 1d f1 3a 40 b6 0f 3b db 9f ca 3a 94 90 d7 3a
       0.0018395596 0.0021928698 0.0015459018 0.0016446286
0000a0 67 99 03 3b a7 99 0e 3b 8d 70 17 3b 92 75 e8 3a
       0.0020080449 0.0021759064 0.0023107857 0.0017735234
0000b0 fc 4f 36 3b 22 16 e8 3a 72 ea 0b 3b 8f 79 25 3b
       0.002781867 0.0017706791 0.0021349457 0.0025249457
0000c0 aa 25 01 3b 3e 8c f8 3a ea 3d ea 3a 9c d1 0a 3b
       0.0019706287 0.0018962694 0.0017871235 0.0021182066
0000d0 35 29 06 3b 2f 4e eb 3a f6 19 cd 3a 32 f1 22 3b
       0.0020471339 0.0017952378 0.0015647996 0.0024863002
0000e0 96 d1 f1 3a a3 9a e2 3a de d3 01 3b dd 19 18 3b
       0.0018449302 0.0017288517 0.001981012 0.0023208775
0000f0 94 1b ea 3a 1d dd 0c 3b ce 26 ef 3a 6f 4b ef 3a
       0.0017861002 0.0021494098 0.0018245818 0.0018256734

backbone.model3.conv1.conv1.weight_zero_point i1 [64, 1]
000000 fb ff 21 d9 ec c2 0f 37 f7 e7 18 e0 e4 d0 ef f4
       -5 -1 33 -39 -20 -62 15 55 -9 -25 24 -32 -28 -48 -17 -12
000010 1b 0a 22 10 00 f4 eb fa ff 1c f1 15 fe df da e9
       27 10 34 16 0 -12 -21 -6 -1 28 -15 21 -2 -33 -38 -23
000020 25 23 05 e9 fd 05 ed 11 02 24 ed 14 03 09 fc 14
       37 35 5 -23 -3 5 -19 17 2 36 -19 20 3 9 -4 20
000030 f2 05 e6 15 17 f9 0d 20 2b f6 fb 00 07 16 d4 13
       -14 5 -26 21 23 -7 13 32 43 -10 -5 0 7 22 -44 19

backbone.model3.conv1.conv1.weight_quantized i1 [64, 64]
000000 1c 08 1b 17 0a df c5 cc ce 0a 09 e8 f8 fe 02 d3
       28 8 27 23 10 -33 -59 -52 -50 10 9 -24 -8 -2 2 -45
000010 fa 0b 2a 1a d8 00 fc d3 f2 ef 45 f8 7f 13 22 20
       -6 11 42 26 -40 0 -4 -45 -14 -17 69 -8 127 19 34 32
000020 2b 3f f2 0d 1e 08 eb 23 e9 ff 23 08 db f9 ff 80
       43 63 -14 13 30 8 -21 35 -23 -1 35 8 -37 -7 -1 -128
000030 1c fd 3f e5 fd d7 01 ed fc 1d e1 f5 af 9f c5 15
       28 -3 63 -27 -3 -41 1 -19 -4 29 -31 -11 -81 -97 -59 21
000040 cf fa 19 2c 7f 80 97 13 d7 cb e9 34 e3 01 22 62
       -49 -6 25 44 127 -128 -105 19 -41 -53 -23 52 -29 1 34 98
000050 15 05 46 f4 ee 0b 0d ea 44 cb 35 a9 04 09 1d 13
       21 5 70 -12 -18 11 13 -22 68 -53 53 -87 4 9 29 19
000060 e8 f9 4a dc d3 30 fb 17 09 38 ac 23 f0 ba c9 e8
       -24 -7 74 -36 -45 48 -5 23 9 56 -84 35 -16 -70 -55 -24
000070 e8 90 52 0c fe b9 17 18 c7 0b f2 ca e2 6d 1b 76
       -24 -112 82 12 -2 -71 23 24 -57 11 -14 -54 -30 109 27 118
000080 0e 2f 1d 14 f7 1b 5e 14 e7 0e 03 a1 f5 2f 80 16
       14 47 29 20 -9 27 94 20 -25 14 3 -95 -11 47 -128 22
000090 1e ea 73 da 2a 32 36 7f fa d0 34 3a 11 08 03 5e
       30 -22 115 -38 42 50 54 127 -6 -48 52 58 17 8 3 94
0000a0 e6 56 48 29 f1 4d e7 e3 14 24 18 34 40 b7 23 ff
       -26 86 72 41 -15 77 -25 -29 20 36 24 52 64 -73 35 -1
0000b0 eb 41 0c fe 3e 0a 15 e0 52 ea db 76 08 14 dd bb
       -21 65 12 -2 62 10 21 -32 82 -22 -37 118 8 20 -35 -69
0000c0 d8 f4 e2 07 f6 a9 9a cf d6 80 1f b6 e8 ba 17 f9
       -40 -12 -30 7 -10 -87 -102 -49 -42 -128 31 -74 -24 -70 23 -7
0000d0 ff 55 02 dd e3 ab c0 e0 92 1e 08 d6 0f bf f5 cd
       -1 85 2 -35 -29 -85 -64 -32 -110 30 8 -42 15 -65 -11 -51
0000e0 7f b7 f9 be 34 e3 f2 e9 e8 e6 09 fe a2 c1 de 17
       127 -73 -7 -66 52 -29 -14 -23 -24 -26 9 -2 -94 -63 -34 23
0000f0 e0 d0 c1 ae a4 f3 24 14 0c b2 af ed c0 ef 09 c9
       -32 -48 -63 -82 -92 -13 36 20 12 -78 -81 -19 -64 -17 9 -55

backbone.model3.conv1.conv1.bias_quantized i1 [64]
000000 14 f4 9d 7f ce 05 39 09 14 fe 05 0e f6 f6 3a 56
       20 -12 -99 127 -50 5 57 9 20 -2 5 14 -10 -10 58 86
000010 29 db 27 23 e5 0f fe 23 28 c2 0c 7b d4 0b 18 f9
       41 -37 39 35 -27 15 -2 35 40 -62 12 123 -44 11 24 -7
000020 07 bd 39 17 2c d9 22 31 dc f4 d6 ec c4 e1 c7 1f
       7 -67 57 23 44 -39 34 49 -36 -12 -42 -20 -60 -31 -57 31
000030 df e1 02 0f 06 3b f5 0c 80 0d f8 34 f9 0f 3f 0c
       -33 -31 2 15 6 59 -11 12 -128 13 -8 52 -7 15 63 12
